models/model_mini.pth (torch, 70184 bytes, 4 tensors)

weight f4 [32, 1, 3, 3]
00000000: 7287 993d 2d9a 2fbd 7deb d5bd 5826 b93b
00000010: b411 bcbe 3cc4 76be daa2 0bbe 8970 683e
00000020: 8017 463d a90d 91be 0fe7 8ebe 4f86 8e3e
00000030: 8452 363e b74e b0bd d218 ec3d 43c1 1b3e
00000040: 3ffe 633e 1544 b0be ad14 df3d 2055 38bd
00000050: 93f4 02be 6ffb 7ebe 67d2 0bbe 8200 a4be
00000060: 0334 403e 89b0 143e 0c35 113a bcdf 9bbe
00000070: 3fa8 a3be 8d28 883e 1224 f03c de95 793e
00000080: bbfe 3a3e 5a21 23be 483c 4f3e d9a1 36bd
00000090: 74c6 01be 52af 883e efff 2bbe 90e3 31be
000000a0: 0ee9 7a3d 1286 51bd 622d 80be f481 33be
000000b0: 4255 11be 3f97 603e bc28 76be 8186 573e
000000c0: 83b2 53be b1fc 4fbe c111 85be 77b4 e2bd
000000d0: 00a0 09bd 2c21 0c3e 746a 61be 536e 2c3e
000000e0: 6d26 a9be 7043 a53d 6c47 8a3e f647 e53c
000000f0: a7ac 003e a734 a23d fcbd 873e afe9 3cbe
00000100: 8ed0 8f3d 2b0b 77be caf2 943e 3b9b a7be
00000110: 8a61 063e 4ed9 17bd 0f62 f93d f981 153e
00000120: 13ff 453d 6445 b13c 8f0a 933d a9b3 a63e
00000130: 8a1b 013d e0b8 86be c4f6 96be 1694 9abe
00000140: 50e5 8dbe ad81 bbbd be44 babd 6aea 473e
00000150: 9145 52be cb6f 36bd 85ab 8c3e e175 0fbe
00000160: 99c1 8abe c73a 283e 782c 6abe 3883 003e
00000170: 8dc0 41bc da63 153e cb74 ea3d c20b 233c
00000180: 5297 913e 069d 9c3d cdbc 333e cb37 1838
00000190: 4dd8 f8bd 102a 53be 039e 5d3e 101e 37be
000001a0: e1b7 6abe 6615 2bbe 2e8d 86be ccd3 48be
000001b0: e06d f23d 1c90 f8bc 1b88 433e 2a44 27bc
000001c0: 8375 d93d 6e9d 5e3e 7618 f2bd 5658 b3be
000001d0: 54a6 8e3e 45d8 b9be 3c96 c43c 59b5 89be
000001e0: 70c4 743e 2c5a a1be 6b9a 3a3e bddf 483e
000001f0: cfc6 04be b94f 363e 125d fe3d 50e0 b0bd
00000200: 4cf2 833e b542 a9be bcd7 91be 87b4 41be
00000210: 5b2f 8abc b318 63be e2e0 8d3e 1527 243e
00000220: 2f61 533c 28e0 9ebc 2bb0 5c3e b132 38be
00000230: e8aa 8cbe 7895 c23b df01 853e 7864 7b3e
00000240: 6c56 90bd b266 95be 7e27 ac3c ebf3 6c3e
00000250: 949b 8ebe 4fc6 1e3e 866d 83be 0c2f fbbc
00000260: 99c0 e6bd 3cae 973e 1db8 91bd a442 1f3d
00000270: 215e 95be ceae 47bd 324e 063e 3f98 41be
00000280: d217 9f3d 0791 3cbe 61e7 04be 492e cfbd
00000290: ea95 57be b663 4a3e 8b09 703e ff19 3e3e
000002a0: 1b7f 18be e3a2 4fbd f35a 623e 829a 6fbe
000002b0: c7be e53d f1d8 763e a317 0dbe d82d 893e
000002c0: 6703 67be 8c3c 8d3d d9de 953d 5287 973e
000002d0: 1ee1 8ebe 7607 0dbe b615 0d3e 1663 ddbd
000002e0: 9953 3f3e 4513 b0be 07f2 6f3e 0040 09be
000002f0: a107 2c3e 5ba8 76be 314a bebd 5150 ad3e
00000300: cc61 2f3d 0f1a a9be af66 85be ab5d fa3c
00000310: 47b8 053d 79ba 90bd a497 ee3c 30f5 2abe
00000320: 9d6f 4dbe 1cb8 eb3d 31e5 3fbe 1151 443e
00000330: 3626 28bd 3278 aabe a2d4 29bd 546e 75bd
00000340: 2977 923d 28b8 09bd 685f 8bbe d26e 5ebd
00000350: cdd7 853e bd64 b1bd 80ba 7ebe d975 c33d
00000360: 7169 00be ef7e b23d 4a22 003d 0dbf 69be
00000370: 72c6 663e b5d9 a23d 9caa 883e 116e 8a3e
00000380: 62fd 7bbe dc29 8e3e ed1d 69be 24e9 933e
00000390: 8811 763e 2db4 283e 7150 223d 7566 aabd
000003a0: 7154 513e 36bc 96bc a6e0 a3be 9c29 2ebe
000003b0: 241d 873e 451d 9dbe a2ae 9d3e 747e 15be
000003c0: ac9f a13e 5d8e b2bb cfd2 b2be e951 1abe
000003d0: 4a46 513e 6f89 62be c0bb a03e f5d7 7abe
000003e0: 4002 dfbd 20bd 73bd 611d c73b 80e6 9bbb
000003f0: 93ef 95be ce32 66be 0c08 903e 218e 79bd
0.07496537 -0.042871643 -0.104453065 0.005650323 -0.36732256 -0.24098295 -0.13636342 0.22699179
0.048362255 -0.28330734 -0.2791066 0.27836844 0.17804915 -0.08608764 0.115281716 0.15210442
0.22264956 -0.34426942 0.108926155 -0.045003057 -0.1278861 -0.24900602 -0.13654481 -0.32031637
0.18769841 0.14520468 0.00055392156 -0.30444133 -0.319643 0.26593438 0.029314075 0.24373576
0.18261234 -0.15930691 0.20237839 -0.044587944 -0.1267336 0.2669626 -0.1679685 -0.17371964
0.061257415 -0.05115325 -0.25034624 -0.17530042 -0.1419268 0.21932696 -0.24038976 0.21047403
-0.20673566 -0.20311238 -0.25990108 -0.11069577 -0.033599854 0.13684529 -0.22013265 0.1683896
-0.3303713 0.08069503 0.27007616 0.027988415 0.12565862 0.07920199 0.26512134 -0.18448518
0.070222005 -0.24125354 0.29091483 -0.3273562 0.13123146 -0.037072472 0.12176906 0.14600362
0.04833896 0.021639533 0.07179748 0.32558945 0.031520404 -0.26312923 -0.29485142 -0.30191106
-0.27714014 -0.09155593 -0.09095143 0.19523016 -0.2053435 -0.044540208 0.2747461 -0.14009811
-0.27100828 0.16428672 -0.22868526 0.12550056 -0.011825693 0.14588872 0.11448058 0.009951534
0.2843576 0.07647137 0.1755249 3.6291585e-05 -0.12150631 -0.20621514 0.21642308 -0.17882562
-0.22921707 -0.16707382 -0.26279587 -0.19612044 0.11837363 -0.030342154 0.19094889 -0.010209123
0.10618117 0.21739742 -0.11821072 -0.35028332 0.27861273 -0.36297813 0.023997419 -0.2689617
0.2390306 -0.31514108 0.18222968 0.196166 -0.12966464 0.1780385 0.124200955 -0.08636534
0.25770795 -0.33058706 -0.28484905 -0.18916522 -0.016868284 -0.22177391 0.27710634 0.16030534
0.012901588 -0.019393995 0.21551578 -0.17988087 -0.2747414 0.005938228 0.2597799 0.24550045
-0.07047734 -0.29179913 0.021014925 0.23139922 -0.27853072 0.15505336 -0.25669497 -0.030662082
-0.11267204 0.29625118 -0.07115195 0.038881913 -0.29173377 -0.04875069 0.13115767 -0.18905734
0.07768215 -0.18414699 -0.12978889 -0.1011625 -0.21053281 0.19764599 0.2344114 0.18564604
-0.14892237 -0.05069245 0.22105007 -0.23398784 0.112180285 0.24106194 -0.13778548 0.26792789
-0.22559892 0.06896314 0.073178954 0.2959543 -0.27906126 -0.13772377 0.13777813 -0.10809915
0.18684234 -0.343897 0.2343217 -0.1340332 0.16799785 -0.2408766 -0.09291495 0.3385034
0.042817876 -0.33027694 -0.26054904 0.030562242 0.032646444 -0.07066817 0.029125042 -0.16695094
-0.20062108 0.115097255 -0.18739773 0.1917155 -0.041052066 -0.33294827 -0.041462548 -0.05991967
0.07151634 -0.03362289 -0.27221227 -0.054304905 0.26141205 -0.086617924 -0.24875832 0.09543962
-0.12540223 0.08715617 0.0312827 -0.22826786 0.22536638 0.079516806 0.26692665 0.270371
-0.24608377 0.2776631 -0.22765322 0.2888881 0.24030125 0.16474982 0.039627496 -0.083203234
0.20442368 -0.018400293 -0.3200733 -0.1700806 0.2638942 -0.30686393 0.30797297 -0.1459902
0.31567132 -0.0054491 -0.3492646 -0.15070309 0.2043697 -0.2212274 0.31393242 -0.24496444
-0.10889101 -0.059506536 0.0060765003 -0.0047577024 -0.29284343 -0.22480318 0.2813114 -0.06092656

bias f4 [32]
00000000: 197d 00be c561 1b3d 493c 223e cfaa 54be
00000010: cb26 923d 2f09 84be 4287 a43c 8251 a33d
00000020: 2424 8abe 70cc 673e ada9 2abe 8763 e8bd
00000030: 0d42 69be feca 1c3d cf1a 643e ae36 9a3c
00000040: 545a 81be 8056 1c3e 6492 08be 2371 66bd
00000050: a8ef f03d 9dfc 373e a018 6a3e 01bd 78be
00000060: 587e 733e 22f2 0a3e 913e 3a3e f498 65bd
00000070: ae97 5b3e d66e 66be 960a 72bd a0b0 da3d
-0.12547721 0.037935037 0.1584331 -0.20768283 0.071363054 -0.25788257 0.020084027 0.07974531
-0.26980698 0.2263658 -0.16666289 -0.11347108 -0.22779103 0.038279526 0.22275852 0.018824901
-0.25264227 0.15267372 -0.13337094 -0.05626024 0.11764461 0.17967458 0.22860956 -0.2429085
0.23778665 0.13568929 0.1818793 -0.05605407 0.2144458 -0.22503218 -0.059092127 0.1067822

weight f4 [3, 5408]
00000000: 74ba e8bb b8c4 bc3b ccb5 74bb 96ea 223c
00000010: 9ac9 32bc a8ca 223b f0d6 8eba 803e 4b3c
00000020: da50 433c f04f 90ba a4cf 4bbb 3c07 af3b
00000030: 7c8f cb3b 5410 983b b29b 48bc 74f4 6cbb
00000040: 4d24 603c 6f84 37bc 58b7 74bb c1d4 14bc
00000050: fb35 20bc d813 10bc c701 923b 0d37 9f3b
00000060: 3177 33bc 4fe8 29bc 485a 82ba d6b3 45bb
00000070: af81 023c 1880 453c 5f07 a3bc ae72 523b
00000080: 078a b6bc a73a d5bc 7aa6 51bb 5cf1 adbb
00000090: 03be b6ba af37 633c 4459 b83b 69c3 46bc
000000a0: 64c0 993a 8e5d 523c 2f94 da3b 93e5 05bc
000000b0: a124 d6bc ef9a 21bc 5f5a 45bc fecb e1ba
000000c0: 5e54 b83a 277a 813b e20d 3f3c 3842 ad3b
000000d0: 712e 1dbc bb5a 8e3c ab5e 16bd 1027 e5bc
000000e0: 1b0e 643b d445 363b 4473 ae3a 26c2 743b
000000f0: e51e 18bb 3c3b bb39 a8df fe3b 093f a33b
00000100: 5621 19bc f82c 253c 57a7 1cbd 599e bcbc
00000110: 40de a5bc 7d1f 8bbc 73c5 b8bc bca7 c9bc
00000120: 53e8 47bc 1364 2f3c 2463 39bc d081 c23b
00000130: 7bd6 c639 c3e7 2abc fc75 11bb 8ddd dfbb
00000140: c111 9c3c e1eb 4cbb 1c56 8dbc c55f fabb
00000150: b56c 43bc 4d8f 3fbb 5999 92bc 7777 ea3a
00000160: cdc3 bebb 2321 5bbb b63d 5d3c ee29 e5bb
00000170: ab35 0f3d 5522 96bc 234c 3f3b 2b52 51bb
00000180: 1b33 a8bc 1265 51bc 9c9a 6fbc 8ce0 15bc
00000190: 8b49 98b9 d3f7 24bc 16a4 62bc 760e 1e3c
000001a0: a8cb 26bc 93a1 3e3c a59d dabb 2b0c 45bb
000001b0: c7b7 00bc 5ba2 293b 4c9d c0bc 504f 29bb
000001c0: 5572 50bc 74d5 99bc 3947 b33b 076a 513b
000001d0: d062 4c3b 7cec b93b 1c9d ad3c fcf2 253c
000001e0: 4740 8a3b 6491 f23a a755 aaba 390e 2abc
000001f0: 56ec e9bb bdc8 103c 00c8 ac3b 1c4b 793b
00000200: d0dc 71bc 78ef 4c3c dcca a1bb d80d c7bc
00000210: d57e 1ebc edec 9d3c 0bf8 e53b 75eb e83a
00000220: 1e6e 90b9 6d80 583c 4f5d c3bc 5c64 40bc
00000230: 3531 6fba 0564 123c 8667 063c 7619 203c
00000240: e49f 4f3c d67c 8c3c 4a71 e13a 5044 033c
00000250: cec9 683c 08a6 913c 62c6 0c3c ebc6 6ebb
00000260: b760 fcbb 4fa6 19bc b80d 633c 8e04 bfbb
00000270: a747 f3bb d4af 90bb 70b6 a53a ab56 0fbc
00000280: de32 07bc 2f37 4ebc d575 1abc 97fc 36ba
00000290: 2aa2 fabb 149d 203c 7cb7 23bc 8e95 023c
000002a0: 40f2 403c e89b 2cbc 00ac f2bb 0dc6 d9bb
000002b0: 11cf 22bc 8455 abbb 814e 0e3b f509 1abc
000002c0: 2bbc 8bbb 9eae 69bc 82be 89bc 542c 873b
000002d0: 90dd 85bc 8e09 44bc 743c 273b c07c a43b
000002e0: d2e9 073c bc3e 34bc f15e 2b3c 0a69 63bc
000002f0: efb4 0a3a 4dda 883b aeb1 85bb d0a0 123c
00000300: 0f24 4fbc a33f 60bc 0981 a3ba bfa4 29bc
00000310: 05e8 a0bb 2bd5 2f3c 32a8 12bc 72a5 263b
00000320: b71e 2dbc b0df bd3a e834 10bc 0205 c23b
00000330: 46aa a83b ab38 5a3c bc0a 8cbb dbf6 01b9
00000340: 6d83 cd3b 8758 1c3c 6060 4d3b 1a05 37bc
00000350: cb68 373b 4dfb 4838 1c20 c23b 53da ec3b
00000360: 5425 38bc a135 11bc 2afc b4bb 609d 0ebc
00000370: 005b 1e3c 41c8 a23b 31e7 51bb 0c08 743b
00000380: 3699 97bc cfd2 93bb 96bc 3e3c 80af c73b
00000390: 4055 203c 66e3 133b 7059 f1bb 27ce eb3b
000003a0: 8bf4 09bb 787a 92ba 99b5 45bc b3f8 c7bb
000003b0: 22ed a9ba bfcd 12bc fd7f 0f3a c94e aebb
000003c0: e489 0fbc d3c1 54bc 4395 043c 73a3 c5b7
000003d0: 673c 2b3b 6966 aebb e4e0 db3b e304 8ebc
000003e0: 378c a93c d436 013b 4102 2e3a 213b 193c
000003f0: c965 053b 4813 063b 3db7 c6bb 3633 553b
-0.007102305 0.0057607554 -0.0037339805 0.009943625 -0.010912323 0.002484003 -0.0010897797 0.012405038
0.011921132 -0.0011010151 -0.0031099105 0.0053414386 0.006212173 0.0046406183 -0.012244152 -0.0036156448
0.01368053 -0.011201008 -0.0037340727 -0.009083928 -0.009778495 -0.008793794 0.0044557783 0.0048588575
-0.01095371 -0.010370328 -0.0009945119 -0.0030167005 0.007965489 0.012054466 -0.019900976 0.0032111811
-0.022282613 -0.026028944 -0.0031990097 -0.0053083133 -0.0013942126 0.0138682565 0.0056258757 -0.01213155
0.001173031 0.012839688 0.006670497 -0.008172411 -0.026140513 -0.009863599 -0.012045472 -0.0017226932
0.0014063229 0.0039513293 0.011661025 0.005287435 -0.009593592 0.017377248 -0.036711376 -0.027972728
0.0034798447 0.0027812617 0.0013309498 0.0037347167 -0.0023211774 0.00035711552 0.0077781267 0.0049818796
-0.009346327 0.010081522 -0.038245525 -0.023024725 -0.020247579 -0.016982788 -0.022555089 -0.024616115
-0.0122013865 0.010705012 -0.011315141 0.005935885 0.00037925303 -0.010431233 -0.0022195568 -0.006831831
0.019051434 -0.0031268524 -0.017252974 -0.007640811 -0.011927773 -0.00292297 -0.017895387 0.0017888387
-0.005821681 -0.00334365 0.013503483 -0.006993524 0.03496329 -0.018326918 0.0029189668 -0.0031939845
-0.020532181 -0.012780445 -0.014624264 -0.009147774 -0.00029046493 -0.0100688515 -0.013833066 0.009647002
-0.010180391 0.011635202 -0.0066716247 -0.0030067067 -0.007856316 0.0025884125 -0.023512505 -0.0025834627
-0.012722571 -0.01877854 0.005471137 0.0031954066 0.0031186827 0.005673943 0.02119308 0.010128733
0.0042190882 0.0018506465 -0.0012995497 -0.0103793675 -0.007138769 0.008836922 0.0052728653 0.0038039153
-0.014762118 0.012508266 -0.004937513 -0.024298593 -0.009673794 0.019278014 0.0070180944 0.0017770367
-0.00027547864 0.013214213 -0.023848204 -0.011742678 -0.0009124459 0.008934979 0.008203393 0.009771695
0.012672398 0.01714937 0.00171999 0.008011892 0.01420827 0.017779365 0.00859222 -0.0036434482
-0.007701959 -0.00937803 0.013858251 -0.0058294004 -0.007424313 -0.0044154916 0.0012642872 -0.008748691
-0.008251874 -0.012586399 -0.009427507 -0.0006980388 -0.007648726 0.009803075 -0.009992477 0.007970227
0.011776507 -0.010535218 -0.007405758 -0.006645924 -0.009937064 -0.0052287 0.0021714272 -0.009401788
-0.0042643747 -0.014262823 -0.016814474 0.0041251574 -0.016341 -0.011965169 0.002551821 0.005019754
0.008295493 -0.011001285 0.0104596475 -0.013880024 0.00052912434 0.004176414 -0.004080019 0.0089494735
-0.012642874 -0.013687047 -0.0012474369 -0.01035422 -0.0049104714 0.010731976 -0.008951234 0.0025428203
-0.010566405 0.001448622 -0.008801676 0.005921007 0.0051472513 0.013319175 -0.0042737406 -0.0001239436
0.0062717707 0.009542591 0.0031337962 -0.01117065 0.0027986045 4.7917758e-05 0.005924238 0.0072281747
-0.0112393685 -0.008862884 -0.0055232244 -0.008704513 0.009665251 0.00496772 -0.003202867 0.0037236242
-0.018505674 -0.0045112143 0.011641642 0.0060939193 0.00978595 0.002256596 -0.007365398 0.007196206
-0.00210503 -0.0011175415 -0.012067222 -0.0061026453 -0.0012964348 -0.0089601865 0.0005474089 -0.0053194505
-0.008760903 -0.012985664 0.008092227 -2.3560342e-05 0.0026128532 -0.005322267 0.0067101587 -0.017336315
0.020696742 0.0019716518 0.0006637909 0.009352476 0.0020354858 0.002045827 -0.006064324 0.0032531745

bias f4 [3]
00000000: 9f90 86b9 a431 50ba 376b 313c
-0.00025666223 -0.00079419673 0.010828785
