models/model.pth (torch, 455656 bytes, 8 tensors)

weight f4 [32, 1, 3, 3]
0.024980184 -0.17781457 -0.0585155 -0.29041222 -0.036510892 0.22754233 -0.268662 0.059515987
-0.0054175504 -0.11308515 0.26757535 -0.13571015 -0.17611264 0.17820081 -0.24452673 0.24705365
-0.06645278 -0.07876517 0.203981 -0.17688054 0.26175058 0.27913633 0.12792207 0.08167415
-0.12359534 0.3129574 -0.2809824 -0.31671482 -0.10019868 0.0631782 -0.2904643 -0.101324506
-0.0123548005 0.15086286 -0.32461858 -0.098373756 0.3163325 0.3240872 0.15215637 -0.32065108
-0.28276905 0.07589748 0.15228765 0.16713451 0.26274073 0.25302103 0.06753697 0.31789413
-0.30908924 -0.19709522 -0.0006958206 -0.15173678 0.11288506 0.21711965 0.09382093 0.0045948294
0.14999324 0.23127031 -0.1590054 0.3008016 0.049045857 -0.32039374 0.09820388 -0.30457497
-0.3387904 -0.3252287 -0.11930111 -0.32748753 0.26866427 -0.1848781 -0.16727707 0.2412048
-0.19468486 0.14158282 0.039190255 -0.20412964 -0.22218344 0.2167756 0.2961571 0.21213862
-0.06516775 0.026877187 0.09215281 -0.10440966 0.074454404 0.14408492 0.17341411 0.025212726
-0.1445125 0.32703736 -0.28657308 0.24988548 -0.00046245274 0.047411762 -0.33254796 -0.3354981
0.00096565223 0.2888005 -0.12766841 0.2632689 0.01122306 -0.23384412 0.11222883 -0.12552625
0.019076837 0.06847387 0.0043642777 -0.25388727 -0.3030737 -0.23956156 -0.18162954 -0.022881137
-0.22812746 -0.00017431185 0.03169441 -0.30735877 -0.11532888 0.1833652 -0.17345826 0.22407426
-0.264471 0.29698652 -0.16144688 -0.002938988 -0.04261868 0.10361816 -0.26165107 -0.23297696
0.26322284 0.29872954 -0.29047182 0.006440801 -0.002730058 0.22164822 -0.1932563 -0.10511006
0.022549685 0.26182842 0.070433006 0.21991369 0.26151368 0.28505686 -0.3130898 -0.240426
-0.027257415 0.047656212 -0.084735766 -0.23346189 -0.110646985 -0.06981382 -0.003012143 0.13935933
-0.2361886 -0.090395205 0.09133807 -0.19681476 0.19303127 -0.060837552 0.20796312 0.32693467
-0.071782686 0.19393069 0.18788297 0.045002054 -0.20469333 0.32307142 -0.33110833 0.20017147
0.073718905 0.08368834 0.037277594 0.010057044 -0.30153182 -0.24059193 0.13809957 -0.106166236
0.02234423 -0.225712 0.07975374 -0.2985526 -0.30251333 0.027668508 0.32834852 0.1649733
-0.065032 0.002709015 -0.2579135 0.28307253 -0.26226294 0.25698408 0.18102008 -0.12346227
0.13897318 0.23346344 -0.14529598 -0.245555 -0.3008419 0.29109454 -0.15922424 -0.2292523
0.25689542 -0.28441834 0.3207095 0.15224028 -0.3104071 -0.08191394 0.15918447 -0.24700674
-0.28366652 0.17876269 0.25098658 0.34086245 0.09787997 -0.22835588 -0.09071209 -0.10947642
-0.09588591 0.24257927 0.08234135 0.16132978 -0.31102192 0.12426439 -0.07108978 0.14738388
0.11850673 -0.26069605 -0.03350384 -0.063669495 0.23761666 0.21027538 0.20675543 -0.2805629
-0.1273059 0.02092558 -0.054729685 0.019428788 -0.30366126 0.21941017 -0.14287362 0.2906397
0.20790641 -0.1364412 0.065902025 0.26867172 -0.0732265 -0.18642943 0.006780283 0.26494232
-0.29541233 -0.114027984 -0.23565859 0.23394692 0.09742804 0.04731589 -0.1832103 0.26750165
00000000: 3ea3 cc3c 0615 36be f3ad 6fbd e9b0 94be
00000010: 728c 15bd db00 693e 118e 89be 09c7 733d
00000020: b585 b1bb 3099 e7bd a3ff 883e 9af7 0abe
00000030: df56 34be 467a 363e 3765 7abe a2fb 7c3e
00000040: 6518 88bd a24f a1bd 65e0 503e 2c20 35be
00000050: 2c04 863e f5ea 8e3e 01fe 023e c744 a73d
00000060: 8e1f fdbd f43b a03e eddc 8fbe 7228 a2be
00000070: f734 cdbd 9263 813d bdb7 94be 3983 cfbd
00000080: ca6b 4abc cb7b 1a3e 6834 a6be 2e78 c9bd
00000090: 55f6 a13e c2ee a53e e1ce 1b3e 612c a4be
000000a0: 1bc7 90be 2370 9b3d 4bf1 1b3e 4f25 2b3e
000000b0: f485 863e f98b 813e d350 8a3d 05c3 a23e
000000c0: f240 9ebe 54d3 49be bb67 36ba e360 1bbe
000000d0: 4830 e73d 9d54 5e3e 3025 c03d 3990 963b
000000e0: d497 193e 20d2 6c3e 50d2 22be ab02 9a3e
000000f0: 4fe4 483d a60a a4be 1e1f c93d 40f1 9bbe
00000100: ef75 adbe 6084 a6be 2454 f4bd 72ac a7be
00000110: 5d8e 893e af50 3dbe ae4a 2bbe 64fe 763e
00000120: 785b 47be 16fb 103e f685 203d 5c07 51be
00000130: 0e84 63be 6cfa 5d3e e7a1 973e de3a 593e
00000140: ab76 85bd 8c2d dc3c 9dba bc3d bbd4 d5bd
00000150: 8d7b 983d ff8a 133e 7893 313e eb8a ce3c
00000160: 16fb 13be 7171 a73e b5b9 92be fbe1 7f3e
00000170: 5b75 f2b9 d632 423d ba43 aabe 68c6 abbe
00000180: d323 7d3a a9dd 933e 82bb 02be 2ecb 863e
00000190: ede0 373c d574 6fbe 3bd8 e53d f489 00be
000001a0: 0747 9c3c 073c 8c3d 3702 8f3b 83fd 81be
000001b0: 7a2c 9bbe a04f 75be 18fd 39be 3971 bbbc
000001c0: 3f9a 69be 7bc7 36b9 ffd1 013d 215e 9dbe
000001d0: 8c31 ecbd 16c4 3b3e 0b9f 31be b973 653e
000001e0: be68 87be 9e0e 983e 5552 25be 099c 40bb
000001f0: ed90 2ebd c235 d43d 21f7 85be 8391 6ebe
00000200: 25c5 863e 14f3 983e b9b8 94be 5b0d d33b
00000210: c6ea 32bb c0f7 623e fbe4 45be f143 d7bd
00000220: 1eba b83c 600e 863e 2e3f 903d 0e31 613e
00000230: 1fe5 853e f9f2 913e 4e4d a0be 3c32 76be
00000240: f14a dfbc 2933 433d f289 adbd a210 6fbe
00000250: e39a e2bd 8cfa 8ebd 6067 45bb 36b4 0e3e
00000260: 6ddb 71be 1f21 b9bd 740f bb3d cf89 49be
00000270: fda9 453e cc30 79bd 49f4 543e fb63 a73e
00000280: cd02 93bd c495 463e 6564 403e 1354 383d
00000290: 219b 51be 9e69 a53e 0887 a9be c0f9 4c3e
000002a0: f0f9 963d cb64 ab3d 64b0 183d 4dc6 243c
000002b0: 6162 9abe bb5d 76be f969 0d3e af6d d9bd
000002c0: 3f0b b73c 0c21 67be ee55 a33d e3db 98be
000002d0: 07e3 9abe 11a9 e23c 4c1d a83e c3ee 283e
000002e0: 7f2f 85bd bb89 313b 3d0d 84be e2ee 903e
000002f0: 5447 86be 6b93 833e 545d 393e c9d9 fcbd
00000300: fc4e 0e3e 0a11 6f3e 78c8 14be c572 7bbe
00000310: f307 9abe 580a 953e ae0b 23be 1dc1 6abe
00000320: cc87 833e 489f 91be 0934 a43e e0e4 1b3e
00000330: aeed 9ebe 7fc2 a7bd 4101 233e 56ef 7cbe
00000340: bd3c 91be 910d 373e 5081 803e 8685 ae3e
00000350: 4b75 c83d 20d6 69be 43c7 b9bd 2c35 e0bd
00000360: d55f c4bd b366 783e 95a2 a83d a233 253e
00000370: 443e 9fbe 547e fe3d 8597 91bd cdeb 163e
00000380: a8b3 f23d f479 85be 533b 09bd 2765 82bd
00000390: c851 733e 6e52 573e b2b7 533e f1a5 8fbe
000003a0: 7a5c 02be 1f6c ab3c 3c2c 60bd 1f29 9f3c
000003b0: 7d79 9bbe 0fad 603e 764d 12be bace 943e
000003c0: 6be5 543e 3eb7 0bbe a4f7 863d 578f 893e
000003d0: c6f7 95bd 5be7 3ebe 232d de3b 85a6 873e
000003e0: 4940 97be 8187 e9bd 7c50 71be c88f 6f3e
000003f0: 5a88 c73d 4fce 413d 7b9b 3bbe faf5 883e

bias f4 [32]
0.12774663 0.3226277 -0.16367275 -0.28113428 -0.18131591 -0.26574215 -0.26603046 0.30091023
0.051620606 -0.16479275 0.24536669 0.14166035 0.003159237 0.06322933 -0.27636197 -0.055488445
0.032098215 0.10825959 0.16451189 0.25148168 0.018215496 -0.12562884 -0.26943135 0.05931554
0.2228946 0.08174635 -0.07575056 -0.24024814 -0.1755157 -0.21753882 0.2436431 -0.07621991
00000000: 03d0 023e 752f a53e d499 27be d5f0 8fbe
00000010: e1aa 39be 5b0f 88be 2535 88be e810 9a3e
00000020: 2170 533d 6ebf 28be 6841 7b3e 690f 113e
00000030: 340b 4f3b 617e 813d 517f 8dbe da47 63bd
00000040: 6b79 033d 34b7 dd3d ce75 283e 35c2 803e
00000050: aa38 953c d9a4 00be e8f2 89be daf4 723d
00000060: 7b3e 643e a16a a73d 1c23 9bbd 9c03 76be
00000070: 63ba 33be 7fc2 5ebe 947d 793e 2f19 9cbd

weight f4 [32, 32, 3, 3]
-0.026627962 0.015499452 0.011598096 -0.010664221 0.055017743 0.06988616 -0.01703215 0.021977633
0.07304296 0.0051749 -0.016466834 0.05642836 0.037657402 0.034500267 -0.024746124 -0.044111937
0.062638886 -0.016512968 -0.042980555 0.031153465 0.05709202 -0.0010928969 0.026858134 -0.047364555
0.012051584 -0.04225883 -0.01980489 0.049103968 -0.039044622 -0.006248673 -0.009372632 0.008448615
-0.037570972 -0.029925741 -0.08035891 -0.036569424 -0.04137801 0.028940981 -0.020783536 0.04894407
-0.016749479 -0.040886562 -0.03036388 -0.031472586 -0.0022372415 0.035696805 0.020507997 0.022339128
0.03157059 -0.041854765 0.0059475335 0.059112586 -0.04754881 -0.053187437 0.004316479 0.03373039
0.02070619 0.0077656526 0.03991093 0.03045018 -0.022385418 -0.023865227 0.006470765 0.0682094
0.06096257 0.005411194 0.024082541 0.039663423 0.033630993 -0.063661136 0.02734474 0.11083522
-0.0124676805 0.0006312964 0.022922285 -0.032904115 0.027452124 -0.060455125 0.048840467 -0.026306478
-0.06824665 -0.049077712 0.041295916 -0.02806212 -0.050721377 0.029111363 0.038623918 -0.022721263
-0.044331703 -0.012961696 -0.027158186 0.0043251347 0.013747832 0.02812646 -0.004278492 -0.021820405
-0.03487325 0.0076882257 -0.01160166 -0.065092005 -0.013125696 0.06054178 -0.053438917 0.021201301
0.01567349 0.047470357 -0.037912894 -0.032239027 -0.021505017 0.003465877 0.06181606 0.043934226
-0.05470982 0.010946916 0.009514771 -0.04031559 -0.040131677 -0.012596577 -0.029779457 0.03891781
-0.05299815 0.04078557 -0.043333493 -0.02078762 -0.010768621 -0.012151605 0.031109387 0.050026797
-0.054069318 -0.023084424 0.013222105 0.035403233 0.0063645155 0.032066893 -0.09029773 -0.04928547
-0.046091013 0.053709574 0.020636158 0.051518828 -0.044440534 0.009138059 -0.0088020405 -0.03511195
-0.054011416 0.066173136 -0.053871088 -0.0020026225 -0.051676318 0.03561258 -0.03075738 0.045319784
-0.07454266 0.0474457 0.02400114 -0.039526686 -0.030228669 0.0029043225 0.018243495 -0.0150167905
0.038353465 -0.0134036625 0.0066660554 0.013135806 0.0058740242 -0.020535877 0.014691891 -0.034497432
0.0530359 0.038761705 0.032293513 -0.06478148 -0.06950671 0.035170916 0.02044632 -0.01609748
0.04121456 0.006079062 0.020624096 -0.039115973 0.020478906 0.033835296 -0.023290403 -0.051547695
0.00288275 -0.017605904 0.010733007 0.014708827 0.028817285 -0.051988993 0.042571116 0.019765316
-7.435569e-05 0.01244009 -0.042146403 -0.030373108 0.0551224 -0.051191974 0.043623336 0.057685535
0.044692352 0.034290064 0.0068080905 -0.045172293 0.05266142 -0.07391949 0.022122858 0.04758613
0.055042624 -0.044000655 0.050136127 -0.044649273 -0.08427356 0.055753045 0.06704371 0.0055618286
-0.017455902 -0.052024767 -0.0021388659 0.0046360283 0.0156396 0.016403673 0.058361344 0.044477127
-0.031072453 -0.02622291 -0.04877431 -0.02278114 0.006750851 -0.03613938 0.006224486 0.06333992
0.031587634 -0.053743582 0.0061944844 0.011060387 -0.05252946 -0.014834866 0.0060015125 0.014459099
-0.005185923 -0.0089030005 -0.04648686 0.031155992 0.034649864 0.0040332833 -0.007174853 0.022066794
-0.05178848 -0.047761593 -0.016220437 0.057095163 -0.031582963 -0.004622411 -0.0392734 0.059672143
00000000: e222 dabc 6af1 7d3c f105 3e3c fcb8 2ebc
00000010: 495a 613d 7a20 8f3d 0287 8bbc 700a b43c
00000020: 8c97 953d 3592 a93b 74e5 86bc 6d21 673d
00000030: a63e 1a3d 2750 0d3d 62b8 cabc b8ae 34bd
00000040: d148 803d 3446 87bc 610c 30bd 8d35 ff3c
00000050: 52d9 693d 893f 8fba 9705 dc3c 5601 42bd
00000060: 0274 453c 9817 2dbd dd3d a2bc 3e21 493d
00000070: 41ed 1fbd abc1 ccbb ab8f 19bc 0f6c 0a3c
00000080: 05e4 19bd d426 f5bc 3693 a4bd d2c9 15bd
00000090: fd7b 29bd a315 ed3c 3c42 aabc 9479 483d
000000a0: 3436 89bc ab78 27bd acbd f8bc 66e9 00bd
000000b0: af9e 12bb d036 123d 6300 a83c 8c00 b73c
000000c0: 2a50 013d e76f 2bbd 87e3 c23b 0a20 723d
000000d0: 8ac2 42bd 12db 59bd 4071 8d3b e128 0a3d
000000e0: 07a0 a93c 0477 fe3b a579 233d a872 f93c
000000f0: a061 b7bc 0281 c3bc b608 d43b 5fb1 8b3d
00000100: e3b3 793d 6350 b13b c048 c53c 1d76 223d
00000110: a7c0 093d c560 82bd 1402 e03c 93fd e23d
00000120: 3e45 4cbc 967d 253a 84c7 bb3c 77c6 06bd
00000130: 47e3 e03c cb9f 77bd f10c 483d af80 d7bc
00000140: e6c4 8bbd b605 49bd e825 293d 88e2 e5bc
00000150: 38c1 4fbd f47a ee3c 1d34 1e3d f121 babc
00000160: 2995 35bd 4b5d 54bc d87a debc dcb9 8d3b
00000170: 963e 613c 7669 e63c 9832 8cbb b5c0 b2bc
00000180: 41d7 0ebd 83ed fb3b e414 3ebc f54e 85bd
00000190: 290d 57bc a8fa 773d c4e2 5abd 5aae ad3c
000001a0: b165 803c 4770 423d 8d4a 1bbd 120d 04bd
000001b0: 4a2b b0bc c423 633b d632 7d3d 60f4 333d
000001c0: 6717 60bd b25a 333c d8e3 1b3c f621 25bd
000001d0: 1d61 24bd e061 4ebc 0cf4 f3bc 4868 1f3d
000001e0: 9714 59bd c50e 273d 767e 31bd cd4a aabc
000001f0: df6e 30bc 8717 47bc 1dd9 fe3c e6e8 4c3d
00000200: ca77 5dbd 8c1b bdbc 87a1 583c fb02 113d
00000210: 6d8d d03b 9358 033d 04ee b8bd 90df 49bd
00000220: eec9 3cbd 92fe 5b3d 290d a93c 6805 533d
00000230: 4707 36bd ccb7 153c 6f36 10bc 8cd1 0fbd
00000240: 133b 5dbd c885 873d eea7 5cbd 6e3e 03bb
00000250: 8caa 53bd 7fde 113d e7f6 fbbc 3da1 393d
00000260: d2a9 98bd 6c56 423d 0a9e c43c bce6 21bd
00000270: 1da2 f7bc 7256 3e3b 6273 953c fc08 76bc
00000280: 8618 1d3d 099b 5bbc ed6e da3b 9037 573c
00000290: e37a c03b db3a a8bc 42b6 703c 2e4d 0dbd
000002a0: 2c3c 593d 98c4 1e3d 3446 043d 27ac 84bd
000002b0: 8959 8ebd 610f 103d 0a7f a73c ddde 83bc
000002c0: 99d0 283d de32 c73b ddf3 a83c 1238 20bd
000002d0: 61c3 a73c e196 0a3d 84cb bebc ad23 53bd
000002e0: 85ec 3c3b 423a 90bc 7fd9 2f3c 4bfd 703c
000002f0: 3a12 ec3c 69f2 54bd 0d5f 2e3d dfea a13c
00000300: 68ef 9bb8 85d1 4b3c b5a1 2cbd 06d1 f8bc
00000310: 07c8 613d adae 51bd 62ae 323d ab47 6c3d
00000320: 540f 373d bd73 0c3d 6716 df3b 9506 39bd
00000330: 80b3 573d 1a63 97bd ff3a b53c ade9 423d
00000340: 6074 613d 083a 34bd 8a5b 4d3d 28e2 36bd
00000350: 9e97 acbd 4e5d 643d 364e 893d 0040 b63b
00000360: aeff 8ebc ec17 55bd 372c 0cbb d3e9 973b
00000370: 9e1e 803c ff60 863c 4e0c 6f3d a62d 363d
00000380: a88b febc 6ed1 d6bc 92c7 47bd 839f babc
00000390: 3e36 dd3b e306 14bd c6f6 cb3b 5cb8 813d
000003a0: 0962 013d 3b22 5cbd 1afb ca3b a036 353c
000003b0: 2229 57bd f00d 73bc 56a8 c43b dbe5 6c3c
000003c0: adee a9bb e4dd 11bc 0169 3ebd da3a ff3c
000003d0: 04ed 0d3d a229 843b 071b ebbb 6cc5 b43c
000003e0: 2820 54bd a9a1 43bd b9e0 84bc 9edc 693d
000003f0: 235d 01bd 9877 97bb 25dd 20bd c76a 743d

bias f4 [32]
0.044591982 0.041461144 -0.041095782 -0.018578902 -0.018182872 0.04769405 0.023083126 0.021410823
0.057976417 0.041315116 0.008428786 0.003608769 0.009079063 0.013735858 -0.006678603 0.04633975
0.02370819 0.0012030315 -0.01712971 0.040875867 0.015853822 0.002415128 0.016185576 -0.023488762
0.029674347 -0.051018693 0.025817495 0.011441705 0.0062657315 0.028646912 0.058191124 0.03166134
00000000: 15a6 363d 29d3 293d 0d54 28bd c832 98bc
00000010: 3ff4 94bc d65a 433d d318 bd3c c065 af3c
00000020: ae78 6d3d 0a3a 293d e418 0a3c 1981 6c3b
00000030: 5ac0 143c 5d0c 613c 2fd8 dabb c0ce 3d3d
00000040: ae37 c23c 0aaf 9d3a 9b53 8cbc 746d 273d
00000050: e0df 813c 2047 1e3b 9d97 843c 816b c0bc
00000060: 9e17 f33c faf8 50bd 367f d33c fd75 3b3c
00000070: c450 cd3b eeac ea3c d159 6e3d 52af 013d

weight f4 [128, 800]
0.009510823 0.0080253 -0.008667037 -0.0032024158 0.026211793 0.012519209 -0.034979843 -0.0098925745
-0.039699256 -0.014091448 -0.0020920483 -0.008811564 0.013816009 -0.02600662 -0.010314518 -0.037033822
-0.0050055175 -0.01590996 0.013242681 0.0160242 0.0038544356 -0.0063632075 0.017161049 0.0027888906
-0.018346032 0.007315873 -0.008674164 -0.008033266 0.0011424656 -0.029082173 0.023550054 0.014565866
-0.027790142 -0.023140864 -0.013664497 0.018851748 -0.014507955 0.0068579325 -0.02308114 -0.022878407
-0.019093323 0.02576782 -0.005441961 -0.0139895985 0.006129751 0.017159939 0.022846695 -0.03333203
-1.2797466e-05 -0.037838943 0.026274988 0.020692335 0.010335151 0.022841642 0.027305579 -0.035619102
-0.013957048 0.015027747 0.019111287 0.0009234263 0.008912165 0.018196888 0.008977696 -0.020083167
7.529871e-05 -0.0024570222 0.029619938 -0.037674725 -0.028732913 -0.02883606 -0.02211667 0.00053946837
-0.02317615 -0.025232075 0.021128666 0.015108527 0.016351929 0.029419752 0.015173128 -0.01523271
0.014143309 0.023107067 -0.015694156 -0.019702896 -0.021790469 0.0113417385 -0.0041614133 0.025669776
0.01817885 0.0057233577 -0.039411698 0.02269239 0.0025951513 -0.017987348 -0.024516279 -0.039189067
0.0065497365 -0.0013871198 0.012047234 0.014659143 -0.02877245 -0.038518894 -0.012094938 -0.011341287
-0.016913736 0.009524846 -0.029200962 -0.012325181 -0.024419274 -0.03389325 -0.025422528 0.019160075
-0.001281632 0.0009524105 0.0132457735 0.011803121 -0.021386407 -0.009292415 -0.019281318 -0.040253352
0.026346516 0.01487312 -0.012528837 0.021491038 0.0017642309 0.028850945 0.00975593 -0.025080357
-0.030095614 0.0070759472 -0.01678401 0.022212809 -0.016659573 -0.0056522195 -0.0083285775 -0.03963711
0.010833281 0.0061548105 -0.004992652 -0.0007396263 -0.037535343 -0.04064662 0.002949559 -0.022695333
0.013815698 -0.039454542 0.013642918 0.0023789364 -0.03104522 0.007660829 -0.00079515553 -0.03158855
-0.024648322 -0.021319102 -0.02596633 -0.029017158 -0.026999284 -0.027326599 0.020998634 -0.018210832
-0.032456953 -0.030733658 -0.011302318 -0.01841374 -0.021903781 0.018791992 -0.019784741 0.01996816
0.03157361 0.029399773 -0.037349895 -0.008978546 0.029938992 0.019285567 -0.015970718 0.009222146
0.013330315 -0.012745648 -0.021148227 -0.022894949 0.0023803252 0.023586547 -0.024484161 0.016376575
0.015302678 0.0066420212 -0.020596866 -0.018159421 -0.02701472 -0.014808406 0.017854745 -0.028771201
0.0051295697 -0.0013843456 0.0014991108 0.027211124 0.014988494 -0.015280668 0.017779844 -0.00578727
-0.0027121922 -0.02376718 0.025256906 0.011679191 -0.03536048 -0.030612957 0.027138198 0.016891383
0.030919971 -0.025896307 -0.017997952 0.020350674 -0.00064395147 0.003099373 0.0020386446 0.020916685
-0.033915356 0.006525138 0.0019264041 -0.029589897 0.013469855 0.030028986 -0.019166403 -0.030100053
-0.009524376 -0.020777024 -0.026162846 -0.0119550545 -0.03326781 -0.0028331587 -0.016628044 0.010271369
0.011577063 -0.014788456 0.011839355 -0.0372883 -0.030224277 -0.0032892833 -0.013660525 -0.0345807
-0.034441333 0.006574939 0.019989109 -0.010907486 -0.011808977 0.02843582 0.027719606 0.002220677
0.029475044 0.015550947 -0.029665887 -0.031816237 -0.032877237 -0.0266252 0.013286352 0.017766124
00000000: 48d3 1b3c 8c7c 033c 3000 0ebc 9fdf 51bb
00000010: 1dba d63c 5e1d 4d3c 0647 0fbd 7714 22bc
00000020: b09b 22bd d1df 66bc bf1a 09bb 615e 10bc
00000030: 8b5c 623c d60b d5bc 39fe 28bc c7b0 17bd
00000040: 5305 a4bb 9b55 82bc d4f7 583c 2f45 833c
00000050: b39a 7c3b 7482 d0bb 5495 8c3c d2c5 363b
00000060: 6b4a 96bc feb9 ef3b 151e 0ebc f69d 03bc
00000070: c9be 953a bd3d eebc 0bec c03c aca5 6e3c
00000080: 27a8 e3bc e991 bdbc 0ee1 5fbc fb6e 9a3c
00000090: c6b2 6dbc 82b8 e03b a914 bdbc 7f6b bbbc
000000a0: 9a69 9cbc 0917 d33c 7a52 b2bb a134 65bc
000000b0: 14dc c83b 0093 8c3c fe28 bb3c 2b87 08bd
000000c0: b3b4 56b7 02fd 1abd a53e d73c f982 a93c
000000d0: c454 293c 651e bb3c f3af df3c 56e5 11bd
000000e0: 1aac 64bc f036 763c 468f 9c3c 1712 723a
000000f0: 5404 123c a411 953c 3017 133c 7485 a4bc
00000100: b0e9 9d38 fe05 21bb 83a5 f23c d050 1abd
00000110: 4961 ebbc 9a39 ecbc 052e b5bc 1c6b 0d3a
00000120: e9db bdbc 7fb3 cebc 0616 ad3c c189 773c
00000130: 7bf4 853c b101 f13c b698 783c 9e92 79bc
00000140: 56b9 673c 084b bd3c 0891 80bc f867 a1bc
00000150: ed81 b2bc b3d2 393c 775c 88bb 6c49 d23c
00000160: d0eb 943c 018b bb3b 296e 21bd 64e5 b93c
00000170: 6a13 2a3b 345a 93bc 5dd6 c8bc b784 20bd
00000180: 2c9f d63b 04d0 b5ba c361 453c e72c 703c
00000190: 33b4 ebbc fdc5 1dbd d929 46bc ced0 39bc
000001a0: ad8e 8abc 1a0e 1c3c db36 efbc 8eef 49bc
000001b0: ee0a c8bc a6d3 0abd e842 d0bc 97f5 9c3c
000001c0: 6ffc a7ba 30ab 793a cd04 593c e161 413c
000001d0: 8c32 afbc 373f 18bc dbf3 9dbc b3e0 24bd
000001e0: a6d4 d73c 63ae 733c c045 4dbc f90d b03c
000001f0: c43d e73a d158 ec3c 56d7 1f3c 5275 cdbc
00000200: 148b f6bc 59dd e73b 9f7e 89bc a3f7 b53c
00000210: a879 88bc 4136 b9bb 9674 08bc 865a 22bd
00000220: 137e 313c 4bae c93b 6799 a3bb 7be3 41ba
00000230: a9be 19bd 127d 26bd 634d 413b 90eb b9bc
00000240: 3d5b 623c 169b 21bd 8c86 5f3c eee7 1b3b
00000250: 8c52 febc b107 fb3b fc71 50ba ff62 01bd
00000260: 47eb c9bc 66a5 aebc 57b7 d4bc 64b5 edbc
00000270: 9a2d ddbc 08dc dfbc 5405 ac3c e22e 95bc
00000280: 95f1 04bd 27c5 fbbc 5c2d 39bc 69d8 96bc
00000290: 8f6f b3bc aaf1 993c 9c13 a2bc 4494 a33c
000002a0: 5453 013d cbd7 f03c 34fc 18bd c01a 13bc
000002b0: 9e42 f53c c4fc 9d3c 06d5 82bc 7c18 173c
000002c0: 6567 5a3c 1fd3 50bc 0c3f adbc 308e bbbc
000002d0: 3bff 1b3b 9338 c13c 0293 c8bc 2b28 863c
000002e0: 15b8 7a3c 50a5 d93b c2ba a8bc 11c3 94bc
000002f0: f94d ddbc f59e 72bc 1d44 923c 95b1 ebbc
00000300: f315 a83b ee72 b5ba d07d c43a dde9 de3c
00000310: 4d92 753c c45b 7abc 09a7 913c 24a3 bdbb
00000320: 09bf 31bb 64b3 c2bc 92e7 ce3c 145a 3f3c
00000330: 27d6 10bd 06c8 fabc ed50 de3c cc5f 8a3c
00000340: e14b fd3c 7e24 d4bc 7170 93bc 75b6 a63c
00000350: dace 28ba da1e 4b3b c89a 053b 7859 ab3c
00000360: d4ea 0abd d3d0 d53b 657f fc3a 8366 f2bc
00000370: abb0 5c3c 59ff f53c dc02 9dbc 6394 f6bc
00000380: 210c 1cbc 9434 aabc 7753 d6bc 22df 43bc
00000390: d443 08bd 84ac 39bb 8937 88bc 3e49 283c
000003a0: b9ad 3d3c 484b 72bc dbf9 413c 9ebb 18bd
000003b0: e798 f7bc 0491 57bb 65d0 5fbc 7ea4 0dbd
000003c0: 5b12 0dbd 9672 d73b 33c0 a33c 50b5 32bc
000003d0: 717a 41bc 3df2 e83c 3a14 e33c c788 113b
000003e0: a675 f13c 66c9 7e3c e005 f3bc be51 02bd
000003f0: 48aa 06bd 171d dabc 00af 593c 438a 913c

bias f4 [128]
-0.005867037 0.0036615971 -0.016645176 0.0008280523 -0.018015154 -0.005173336 0.028210446 -0.009576213
0.016923614 0.008002193 0.02091762 0.025628967 -0.0073108966 -0.02480895 -0.027968327 -0.00050238427
-0.029345335 -0.037416976 0.014177684 -0.03710593 -0.005077027 -0.002454711 0.015453129 -0.023080869
-0.013759463 0.011849621 -0.006702513 -0.01385495 -0.0033628384 -0.014890169 -0.013478149 -0.027944257
-0.026151853 -0.03192988 0.01497092 -0.009730728 -0.016887467 -0.0003811006 -0.004558092 0.02782034
-0.036255296 -0.011811729 0.00083360256 -0.012377658 0.013838615 -0.0034138176 -0.040699236 -0.008597604
-0.025221586 -0.017161002 -0.021760274 0.032205362 -0.0069739567 -0.0001146943 -0.010846223 0.016382888
0.005586037 0.021009823 0.02017766 0.013758568 0.032492273 0.017707923 -0.0124029545 -0.029970735
0.02791914 -0.018280005 0.015408861 -0.007753349 0.0065328875 0.032638464 0.0004168523 0.02679705
-0.03394299 0.03318522 0.005101163 -0.013495061 -0.040792633 0.020876713 -0.026239326 -0.004704078
-0.025224475 0.010834215 0.01379365 -0.024355752 0.0088323895 -0.00075954135 0.00046823188 -0.0008106894
0.016244156 -0.02716126 -0.03065746 0.022372195 0.024734996 0.01568224 0.023952272 -0.025204027
-0.01949544 -0.028417349 0.00700007 -0.010793826 -0.011597906 -0.023796897 0.01937272 0.009220734
-0.018708648 0.0035697543 0.00039341926 -0.030363861 0.00791097 0.0047574975 -0.00029034607 -0.0073947315
0.0013477991 -0.024830023 -0.021856973 0.028957423 -0.003106176 0.053575557 -0.027661646 -0.022497395
-0.0022962838 -0.03212745 -0.027135285 -0.009364247 -0.002796727 -0.027388787 -0.009419782 -0.009144673
00000000: 4640 c0bb 68f7 6f3b 775b 88bc a611 593a
00000010: 8494 93bc 1685 a9bb 9819 e73c 8ce5 1cbc
00000020: 64a3 8a3c a11b 033c 6e5b ab3c d7f3 d13c
00000030: 3f90 efbb 243c cbbc d51d e5bc 70b2 03ba
00000040: a165 f0bc 8b42 19bd 8449 683c 63fc 17bd
00000050: 305d a6bb 37df 20bb 1f2f 7d3c 1714 bdbc
00000060: 5f6f 61bc ea24 423c c1a0 dbbb dfff 62bc
00000070: 1163 5cbb e5f5 73bc 74d3 5cbc 5beb e4bc
00000080: 693c d6bc e8c8 02bd 9748 753c a26d 1fbc
00000090: 9657 8abc 75ce c7b9 0c5c 95bb 7be7 e33c
000000a0: 6f80 14bd fb85 41bc 1f86 5a3a a9cb 4abc
000000b0: 5cbb 623c 5bba 5fbb 3eb4 26bd f7dc 0cbc
000000c0: 809d cebc 3b95 8cbc 9a42 b2bc c5e9 033d
000000d0: ca85 e4bb 0988 f0b8 5bb4 31bc 6835 863c
000000e0: 130b b73b cb1c ac3c 9f4b a53c 9e6b 613c
000000f0: 9e16 053d 3510 913c c335 4bbc 3085 f5bc
00000100: aeb6 e43c f3bf 95bc 7375 7c3c ce0f febb
00000110: d511 d63b e9af 053d f88c da39 7d85 db3c
00000120: ce07 0bbd 3aed 073d a827 a73b 631a 5dbc
00000130: 2d16 27bd a405 ab3c dbf3 d6bc ab24 9abb
00000140: 8fa3 cebc fe81 313c c3fe 613c b785 c7bc
00000150: bab5 103c f51b 47ba 057d f539 7284 54ba
00000160: 7712 853c 4a81 debc 5b25 fbbc e545 b73c
00000170: 0ca1 ca3c 0a78 803c 8e37 c43c ad78 cebc
00000180: e7b4 9fbc 80cb e8bc d860 e53b 96d8 30bc
00000190: 2505 3ebc b6f1 c2bc 8ab3 9e3c 9012 173c
000001a0: e142 99bc 8af2 693b d743 ce39 a2bd f8bc
000001b0: 039d 013c c8e4 9b3b 9739 98b9 814f f2bb
000001c0: a2a8 b03a 5568 cbbc 650d b3bc 1e38 ed3c
000001d0: fc90 4bbb 0b72 5b3d ad9a e2bc 754c b8bc
000001e0: 407d 16bb 1398 03bd d14a debc 806c 19bc
000001f0: 4b49 37bb 735e e0bc 6e55 1abc 8ad3 15bc

weight f4 [3, 128]
-0.05608477 -0.027578857 0.05923443 -0.032707445 -0.0034686304 -0.06982346 -0.07646862 0.017244605
-0.06621 0.031947266 -0.021420559 -0.059902243 -0.115566306 0.017470604 -0.009161714 0.010101355
-0.0083384365 0.012689628 0.054830145 -0.060024858 -0.026560405 -0.059929762 -0.016820496 0.050926976
0.030203156 -0.07235976 -0.07713699 0.03902142 -0.042312928 -0.0031684567 -0.028011689 -0.021064611
-0.05308784 0.009745063 0.04027262 -0.04900484 0.07027632 0.043414623 -0.081295505 -0.004313054
0.027143963 0.064841695 0.020663723 -0.07965863 0.03906497 0.022633083 0.041778326 0.049065124
0.024687823 0.05248989 -0.04025483 -0.010969058 0.07375531 -0.008577072 -0.02378405 -0.04669773
0.081426755 0.03136539 0.050543696 0.07961332 -0.011295291 -0.004617388 -0.07389701 0.020740977
-0.03706356 0.09166609 -0.032470983 -0.03572101 0.022543881 0.07265964 0.034025293 0.026885211
0.08921967 0.0025808935 -0.025574166 -0.008010909 -0.017228186 0.033327904 -0.06733585 -0.025099305
0.0153562175 0.038591217 0.034293592 -0.00985778 0.006085132 0.066778 -0.037715636 -0.03969959
0.04915901 0.028395344 0.007024235 0.034360796 0.056444846 0.08375467 0.05317455 -0.033483587
-0.06657791 -0.04293122 -0.02627486 -0.01540079 0.0327417 0.08393248 0.050524678 0.0021916858
0.062725276 0.028544769 0.062116392 0.010962355 0.057559665 -0.021824092 0.039252292 0.006891762
-0.03791702 -0.03198074 -0.062389083 0.078007594 -0.01339109 -0.05370282 -0.056531854 -0.010814466
0.05743568 0.07132763 -0.042876985 0.07277749 0.038309142 -0.026572002 -0.048285857 0.053574592
0.0017018643 -0.056546286 -0.063153446 0.038304236 -0.001526102 -0.045314837 -0.07083631 -0.041349888
0.070111245 -0.051589917 0.009393174 0.02487931 0.043212894 0.036772385 -0.021801157 -0.0646157
0.07983629 -0.078134075 0.016950173 0.060338125 -0.07502966 0.08572325 0.0044675735 0.07567346
0.03765978 -0.06783671 -0.052334312 0.04468543 -0.05865143 -0.07836645 0.01314091 -0.032906532
-0.013110382 -0.051600993 0.028971082 0.06513271 -0.0101197045 -0.02558161 0.0046253754 -0.003307004
0.008444634 0.032655925 -0.04424178 0.064506985 0.02508754 0.027685732 0.08103222 0.0038588375
0.076986454 0.038729206 0.06983852 0.0017028898 -0.024066264 0.065773204 0.0012036168 0.055623565
-0.020288253 0.036158893 -0.036803693 0.071357675 -0.057269204 0.037166614 0.038440123 -0.07215428
-0.07320873 -0.03422894 -0.044315126 -0.07038861 0.07780813 0.059136126 -0.05967854 -0.0047633336
0.049023222 0.00067552185 0.031903937 -0.048687216 0.06131476 0.053252317 -0.003631099 0.0684785
-0.03182563 0.042105798 -0.050651297 0.045763317 0.06268541 -0.014407273 -0.018573228 0.048260435
-0.020445023 0.033513013 -0.0458721 0.08681447 0.06959902 0.009946467 -0.058314644 -0.01013345
0.05048732 -0.023896798 -0.019352678 0.0095040845 -0.04224841 -0.03653186 0.026459238 0.07269944
0.034476906 -0.0184196 -0.06684648 0.030951858 -0.019800713 -0.040797517 0.048980907 -0.00045646913
-0.015251972 -0.08262248 -0.05445329 -0.0079562245 -0.005274694 0.09004286 0.015254253 -0.061935168
-0.05355246 -0.045779336 0.05257711 -0.0019004733 0.076938525 -0.0335861 0.06865887 0.03496663
00000000: 25b9 65bd 0eed e1bc cd9f 723d 3ef8 05bd
00000010: f651 63bb 9aff 8ebd 949b 9cbd 8f44 8d3c
00000020: 1c99 87bd 23db 023d 2b7a afbc 0e5c 75bd
00000030: 07ae ecbd 831e 8f3c 041b 16bc 2780 253c
00000040: f09d 08bc 28e8 4f3c 9395 603d a0dc 75bd
00000050: 3595 d9bc e978 75bd 23cb 89bc ce98 503d
00000060: 9c6c f73c 5b31 94bd 00fa 9dbd edd4 1f3d
00000070: 5250 2dbd e2a5 4fbb c578 e5bc b18f acbc
00000080: a372 59bd c2a9 1f3c e7f4 243d 4db9 48bd
00000090: 08ed 8f3d 88d3 313d 427e a6bd 8554 8dbb
000000a0: 045d de3c b9cb 843d f846 a93c 1024 a3bd
000000b0: 9702 203d 0469 b93c c01f 2b3d 83f8 483d
000000c0: 1e3e ca3c a4ff 563d 40e2 24bd 90b7 33bc
000000d0: 060d 973d d986 0cbc c5d6 c2bc 1e46 3fbd
000000e0: 12c3 a63d ff78 003d e806 4f3d 4f0c a33d
000000f0: e20f 39bc 754d 97bb 5157 97bd fbe8 a93c
00000100: f6cf 17bd 6ebb bb3d 4b00 05bd 3250 12bd
00000110: f2ad b83c 94ce 943d 1b5e 0b3d 603e dc3c
00000120: cdb8 b63d 3524 293b ea80 d1bc 3040 03bc
00000130: 2022 8dbc d782 083d 61e7 89bd 0f9d cdbc
00000140: a598 7b3c d311 1e3d 7077 0c3d 8782 21bc
00000150: c965 c73b e7c2 883d b67b 1abd 0a9c 22bd
00000160: f55a 493d 5a9d e83c 8e2b e63b e8bd 0c3d
00000170: b632 673d 9287 ab3d 8fcd 593d 1626 09bd
00000180: 005a 88bd a6d8 2fbd 603e d7bc 9853 7cbc
00000190: 291c 063d cbe4 ab3d f7f2 4e3d 63a2 0f3b
000001a0: 1c76 803d b8d6 e93c c26d 7e3d 739b 333c
000001b0: afc3 6b3d 70c8 b2bc 03c7 203d 4ad4 e13b
000001c0: e14e 1bbd 3dfe 02bd b28b 7fbd 72c2 9f3d
000001d0: 4d66 5bbc 7df7 5bbd f28d 67bd 282f 31bc
000001e0: ad41 6b3d 3814 923d c79f 2fbd 5d0c 953d
000001f0: 0cea 1c3d 87ad d9bc 64c7 45bd 0871 5b3d
00000200: 1711 df3a 149d 67bd 9856 81bd e7e4 1c3d
00000210: 7c07 c8ba 0d9c 39bd a112 91bd 805e 29bd
00000220: 7c96 8f3d f34f 53bd d4e5 193c b2cf cb3c
00000230: 0100 313d a49e 163d 5798 b2bc 3c55 84bd
00000240: 3581 a33d c204 a0bd 17db 8a3c 1c25 773d
00000250: 26a9 99bd ac8f af3d b964 923b b0fa 9a3d
00000260: 2441 1a3d f9ed 8abd 815c 56bd 1208 373d
00000270: 7b3c 70bd 977e a0bd f94c 573c 00c9 06bd
00000280: edcc 56bc 905b 53bd c354 ed3c 4c64 853d
00000290: 1ecd 25bc 8690 d1bc 7690 973b 52ba 58bb
000002a0: 5d5b 0a3c 38c2 053d de36 35bd 3d1c 843d
000002b0: 6284 cd3c 30cd e23c 38f4 a53d 8de4 7c3b
000002c0: 13ab 9d3d 84a2 1e3d 7f07 8f3d 8033 df3a
000002d0: 9d26 c5bc 1ab4 863d aec2 9d3a 89d5 633d
000002e0: 8d33 a6bc 591b 143d 78bf 16bd f923 923d
000002f0: 1d93 6abd 053c 183d 6473 1d3d a0c5 93bd
00000300: 75ee 95bd a533 0cbd c783 35bd e727 90bd
00000310: de59 9f3d b938 723d 7c71 74bd bd15 9cbb
00000320: 93cc 483d 8115 313a b4ad 023d 3f6c 47bd
00000330: 3025 7b3d 1a1f 5a3d bbf7 6dbb 753e 8c3d
00000340: 985b 02bd 2177 2c3d bc77 4fbd 5172 3b3d
00000350: 3561 803d 7c0c 6cbc e226 98bc bcac 453d
00000360: 527c a7bc f144 093d 62e4 3bbd c9cb b13d
00000370: ee89 8e3d 82f6 223c 56db 6ebd c506 26bc
00000380: cbcb 4e3d 38c3 c3bc 8289 9ebc 05b7 1b3c
00000390: ab0c 2dbd 6ea2 15bd 0bc1 d83c 72e3 943d
000003a0: a837 0d3d b3e4 96bc cfe6 88bd c08e fd3c
000003b0: 1b35 a2bc 4c1b 27bd 34a0 483d 4052 efb9
000003c0: 68e3 79bc fa35 a9bd 6a0a 5fbd d35a 02bc
000003d0: 57d7 acbb 6468 b83d f9ec 793c bbaf 7dbd
000003e0: d359 5bbd 1d83 3bbd 185b 573d 4d19 f9ba
000003f0: f291 9d3d 9491 09bd 069d 8c3d 2b39 0f3d

bias f4 [3]
-0.045087937 -0.004261248 -0.06370558
00000000: 21ae 38bd f0a1 8bbb 1278 82bd
